with_lstm/best_lstm_model.pth (torch, 638136 bytes, 30 tensors)

lstm.weight_ih_l0 f4 [256, 7]
00000000: 804e 273f 6b59 0dbd 8ef8 193f 78aa c9bf
00000010: 737f eebd d22d 0d3e bc49 14be 4e5c 923e
00000020: cc0a 1cbf e670 233e b3ed 87bc dd7f 333e
00000030: d519 00bf 2087 38bf e2c0 d6bb eda3 4e3f
00000040: 3c3e 00bf 593c f03d a4b2 89be 550d 033f
00000050: 0703 0f3d fe4d b83d 8959 fd3e 8ca4 98be
00000060: c385 413f c08f 03be cacf 603e 9667 5cbe
00000070: 11f2 59bf ee9b 1c3d d07c 8dbe 896a 5abf
00000080: 4b06 763b 9dbd 683e 31db 803e f5f8 8f3e
00000090: 1761 c53e b7e6 123e 87c1 19be 3e71 b13e
000000a0: 8bf5 5d3f e509 1abf 4460 e5bd 3790 273f
000000b0: 6264 dabe 86b1 d0bd e150 42bf 44e0 19bf
000000c0: 2d20 2b3f 77e4 383e 3246 013f 1a15 cb3e
000000d0: 9c24 983d 42d2 813f b0ae 5d3e c659 56bd
000000e0: 1ac7 c33e 40a7 973e be16 033f 1432 613f
000000f0: cab4 983e c848 f63c 79fa a4ba 250b ba3d
00000100: f173 9a3f 2bab 293e 0bb0 f73d 7c56 193d
00000110: 9092 bc3e 7fbb d3be 5d7d ac3e 46d8 ae3f
00000120: 6c9d 143f 1c2a a53e 01e1 d23e b645 ce3e
00000130: 9daf 20bf a8bb 243e e361 25bd 0f35 8e3d
00000140: 2871 a4be c939 b5be b76e 42bf 2574 9f3d
00000150: 5f71 863e 5e0e ba3d ed97 88bd acd1 08be
00000160: e689 9cbf fcd9 113f 1039 0e3d 6d22 f5be
00000170: 5628 da3f 01e4 e8be 3961 03bf 16b9 03bf
00000180: df8c 92bf a2b8 a6be c326 773e e3dd 98bf
00000190: 21cd babe e161 333f 7712 1dbf 72c4 b13e
000001a0: f2c9 a43e 9337 8f3e d645 c53d 95bd 963d
000001b0: 5fdb 1c3d d175 003f e122 1ebe 1e72 61be
000001c0: 6ff0 4ebe 9326 dd3e 73d3 02be 62d5 37be
000001d0: 8c13 d2be f2c3 71bf 56f3 263e 10bd c3be
000001e0: 93c7 9e3e 0a04 48be 04ab 493e 62d4 683f
000001f0: be9d ec3e 581b 7fbf 752f 0e3c 484a 633f
00000200: fc7e 69bd 9cd5 a4be f335 2bbf 5760 30be
00000210: f416 a13e e985 fc3e 298e c53e c945 1b3f
00000220: 23ce cfbd c9cd dd3e a9ab c83e 27ed 2abf
00000230: d2c2 e3be cb11 34be d3f2 0cbf d440 ddbe
00000240: 4c58 16bf 253c b83f 5138 d3be 51f7 20bf
00000250: 9159 0dbf 233a 65bf 779e d43e 5de2 f1be
00000260: 16fe a1be 4559 853c c374 d3bb 6ac5 e23f
00000270: ce1f 92be 97c4 913e ed3e 053f f747 c73c
00000280: c841 ccbe 0822 23bf f38e a7be b203 8abf
00000290: 5ce1 fe3e ff46 3cbf d102 86bf bcda a53f
000002a0: fc52 edbe 9f20 e73d 8651 02bf 568d e13e
000002b0: f434 17bf 37f0 233f 0d04 e0bd 5edd 7e3e
000002c0: 5b11 84be 481c 063e 1da8 803f b7ea c6bf
000002d0: 8a80 18bd 20d3 6c3e f200 c4bf 6a3f cbbf
000002e0: 50f9 b3bf 0bd8 9a3f 6692 00bf 28a6 e6be
000002f0: b2ac 7abd 1092 fe3e 7574 7c3f d616 f93e
00000300: ce39 99bd 3f3e 32bf 39b5 7ebe 0495 dcbe
00000310: 0cb0 953e 1056 043d c4be 503e 735c f9be
00000320: 9288 763d cc95 0fbe c11a 993d fa68 c23e
00000330: f3a9 713e 2120 a13e 0d8c 4fbe dbcf 523f
00000340: bce7 3a3e 75b0 25bf b4bc 8c3e 2ba5 4340
00000350: e3b5 18be f1ee 013f a0b9 0cbe 105f 873d
00000360: 0edc db3e c89b 0abf e2ac 1e3f 186c bdbe
00000370: 1670 58bf 18bd 793e 0109 8abe a068 07bf
00000380: 9075 32be e095 3e3e 4d04 16bf b6e3 a63f
00000390: f089 083c d881 26be 8e45 c03f eed2 3a3f
000003a0: 5e2b db3e 4382 313f b10b 043f 118c 0d3f
000003b0: e475 3c3d f5eb febe e6e0 2fbf d674 53bf
000003c0: b341 27bf db8a 913e 8fa5 9dbd fbcf 8dbe
000003d0: 48e9 693d 7000 5bbe b3ba d1bc 2e1e fa3e
000003e0: 6c55 52bf b5c9 933e 2ed5 c53e 8e99 a3be
000003f0: 0ed6 2e3f 6f07 4f3d 07bc 2f3f 1136 2c3e
0.65354156 -0.034509104 0.6014489 -1.5755148 -0.11645403 0.1378701 -0.14481252 0.28586048
-0.60953975 0.15961036 -0.016592836 0.17529245 -0.50039417 -0.72081184 -0.006553755 0.8071888
-0.5009496 0.117302604 -0.26894104 0.5119222 0.034914996 0.08999251 0.49482372 -0.2981304
0.7559473 -0.12847805 0.21954265 -0.2152389 -0.8513499 0.038234644 -0.27634287 -0.8531881
0.0037540372 0.22728582 0.2516723 0.28119627 0.38550636 0.14345823 -0.15015231 0.3465671
0.86702794 -0.6017135 -0.11200002 0.6545443 -0.4265471 -0.1019011 -0.7590466 -0.6010783
0.6684597 0.18055902 0.50497735 0.39664537 0.07428858 1.014229 0.21648669 -0.05233171
0.3823784 0.2961979 0.51206577 0.8796704 0.2982543 0.030064002 -0.0012586854 0.09084157
1.2066633 0.16569202 0.120941244 0.037435994 0.36830568 -0.41353986 0.33689395 1.3659751
0.58052707 0.3225869 0.4118729 0.4028756 -0.62767965 0.1608721 -0.040376555 0.06943714
-0.3211758 -0.3539565 -0.7595019 0.07785825 0.2625837 0.090847716 -0.066696025 -0.13361233
-1.2229583 0.5697324 0.034722388 -0.47877827 1.704356 -0.45486453 -0.51320225 -0.51454294
-1.144924 -0.3256274 0.2413588 -1.1942714 -0.36484626 0.70071226 -0.613563 0.34720188
0.32185322 0.27972087 0.09632461 0.07360379 0.038295146 0.50179774 -0.15442993 -0.22016189
-0.20208906 0.43193492 -0.12775974 -0.17952493 -0.41030538 -0.94439614 0.16303763 -0.3823018
0.31011638 -0.19532791 0.19694144 0.9094907 0.46214098 -0.996511 0.008678307 0.8878522
-0.057005867 -0.3219422 -0.66879195 -0.1722425 0.31462824 0.49320915 0.38585022 0.6065336
-0.10146739 0.43321064 0.39193466 -0.66768116 -0.44484574 -0.17584912 -0.5505802 -0.43213522
-0.5872848 1.4393355 -0.41253904 -0.62877375 -0.5521479 -0.89541835 0.4152715 -0.47243014
-0.31639165 0.016277919 -0.006453128 1.7716496 -0.2853989 0.284703 0.5204914 0.024326308
-0.39893937 -0.637238 -0.3272625 -1.0782378 0.4978131 -0.7354583 -1.046961 1.2957377
-0.46352375 0.11285519 -0.50905645 0.44053143 -0.59065175 0.64038414 -0.109382726 0.24889132
-0.2579449 0.13096726 1.0051304 -1.5540379 -0.03723196 0.23127413 -1.5312788 -1.5878727
-1.4060459 1.2097181 -0.50223386 -0.45048642 -0.06119985 0.49720812 0.986152 0.48650235
-0.074817285 -0.6962623 -0.24873818 -0.4308244 0.29235876 0.032308638 0.20385271 -0.48703346
0.060188837 -0.14021987 0.07475806 0.37970716 0.23599987 0.31469825 -0.20268269 0.8234841
0.18252462 -0.6472238 0.2748772 3.056956 -0.14913134 0.5075522 -0.13742685 0.066099286
0.42941326 -0.54143953 0.6198255 -0.3699653 -0.8454603 0.2438854 -0.26959994 -0.5289402
-0.17427659 0.1861186 -0.5860031 1.3038242 0.008333668 -0.16260469 1.5021226 0.72978103
0.42806524 0.6933939 0.5158034 0.5529185 0.046010867 -0.49789396 -0.6870254 -0.8260015
-0.65334624 0.2842625 -0.076975934 -0.2769774 0.05710724 -0.21386886 -0.02560172 0.4885115
-0.82161593 0.28864828 0.38639206 -0.3195309 0.6829537 0.0505442 0.6864628 0.168175

lstm.weight_hh_l0 f4 [256, 64]
00000000: 96a0 4fbe d94d 5fbe 5ce6 0a3c 584c 37be
00000010: 42c4 b6bc 8d35 633d b36d 923d a01c ed3e
00000020: c01a 2c3f 19ee 8a3f 85e4 ff3e b8b3 24bf
00000030: 684d 06be 7f0d 5f3e 3f6a e83e 80e3 e7be
00000040: 28ed 7b3e 3ce6 24bd d7e0 013f b397 243e
00000050: fb7c c1be 0e4f 42bc 7a67 fa3e dec3 8e3c
00000060: 20ee 8bbe 5c56 46bf 5dbe f03e 627f a73e
00000070: 2c26 d0be 57b3 04be 68b5 41be 3787 463f
00000080: 925b 103f 4017 efbe 64b0 dfbd cd95 0abd
00000090: 6b9c f63f 2ae5 743f 3256 35bf 6c6b f3be
000000a0: f478 00bf 9370 ca3e f887 053e 4426 3dbf
000000b0: a2d9 8b3d 161a 39bd f1f6 9b3e 61c0 8c3e
000000c0: 5fdb d6be 0a43 673f ac84 6dbe af61 033f
000000d0: 2474 463c 1886 31be 2848 d1be bcb8 4a3e
000000e0: 6674 763e 5c4d 8bbe 5f4e 1b3e d881 52bf
000000f0: 5a8d 72be 558a 79be db43 023e 6498 d2be
00000100: 69b8 0a3f 301d 35be defd a13f ee9f 0f3e
00000110: d6ae 943e 3730 a23e 6a23 d73b 774f 0abc
00000120: 9a2f 0f3f 5e43 a4be 1c91 283f a89e 28bf
00000130: e7b2 ebbe a08e abbf 95f1 2bbe 3595 07bf
00000140: ff37 263e d1d9 31be b684 b73e e391 d8bd
00000150: 3e3b e7be 9e8b b73e ee5a 393d 809f 27be
00000160: c899 b43d ecd6 f4be fd14 c6be 502f 0e3f
00000170: b7b4 a7bc 74b6 5f3e 9b43 dfbe f9f6 493f
00000180: 7d98 a3be 780a 1dbf acec 09bf 9e3f e13e
00000190: 2694 75be 9dcb 633d cb5c 963d 3286 673e
000001a0: 1d82 903e cde5 a9be 92b4 0ebf 5f20 91ba
000001b0: d9bd 63bf 629d a43e 0d9f e3be c833 adbe
000001c0: b318 683f 12d1 4a3f cdfd a73d fb57 5cbe
000001d0: 7d73 26ba e048 c73b 9ff1 64bf 8c10 3a3e
000001e0: 4c27 213e 6c4f 9f3e 4374 9c3d 86bd 12bf
000001f0: c4f5 d73e 62b1 023f 9740 b53e 16f7 6b3e
00000200: 8352 423f c84c 65bf 8c99 e03c 77cc 01bf
00000210: d769 54be 75df 6cbe 1728 36bf 2a39 08bf
00000220: 65d9 313e 74e0 18be 7528 1bbf 7194 873e
00000230: 7b18 813e f648 14bd 4a9c 343e 5c4d 4b3e
00000240: d05f b13e ba7f 1ebf 5526 313e 8dd1 e73e
00000250: 2758 e4bd ea55 14bd 485a 61bd f33d ffbd
00000260: 413d 343e 5799 a43e c51b 4d3d db93 90be
00000270: fec2 69bf 1315 94be 46c9 29bd 6e83 0fbf
00000280: 4f91 7a3f 6a40 c3be 0dff 7bbc fe49 8abe
00000290: dd36 903f 5a8a 203f 461a ddbd 765d 99be
000002a0: f72c ffbc aa5f 943d 909d 323e 9bbe 2fbd
000002b0: 4fef 20bf 0a9f b53e 532b d53e dc42 eabc
000002c0: 7d5c e7be 28b7 36be e8bf e0bd 581a 85be
000002d0: 94bf 00be 38eb 3f3e 0d73 213f 7ad7 163e
000002e0: e1b8 9dbd 9d11 83bd 356f da3e 0af5 253e
000002f0: 1aa2 e0be 7e01 9c3e 036f f1bd c051 09bf
00000300: b27b 3c3f 8cf7 153d a644 483f 5e11 30be
00000310: 5f7e 29bf 8e0d dabd 6ed0 0dbe df91 0f3f
00000320: 4997 e23d 7fca 683e 8069 dcbe 304d 0c3e
00000330: e15e 82bd 89a2 83bf d0a6 74be 009c 0b3f
00000340: a7d5 063f 57ae 9fbe b50b 72be c240 553d
00000350: 0484 8c3e 0851 ccbd 569c bf3e 8b4f 6e3e
00000360: 40a7 7bbe b130 1abf 15c7 3a3f 6252 07be
00000370: a588 b0bd db31 343e a49d 4abe 2e72 4b3f
00000380: 84bc 6d3e 99d8 263f d40d 113d 7d10 133e
00000390: f5d5 073e 9d59 403f 43f0 aabe 1516 a5be
000003a0: 7c3d 20bf c321 743e 8abc 6bba eb5b 97be
000003b0: c4ec 623f da36 843e 795d 65be af0f 6f3f
000003c0: 33b8 3cbf 0f97 e9be b786 d73d fe74 88bf
000003d0: b643 cc3e 30bf 89bf 4d78 3cbf 422f 8c3e
000003e0: dc13 2ebf 8058 803d a6d2 05bf 773c 6e3c
000003f0: 5b69 603d f00d 2abe dbaa 0fbf b33f 6d3e
-0.20276102 -0.2180704 0.0084777735 -0.17900217 -0.02231038 0.055470992 0.0714983 0.46310902
0.6722832 1.0853912 0.49979034 -0.6433673 -0.13115466 0.21782492 0.4539356 -0.45290756
0.24602187 -0.04025863 0.50733703 0.16073494 -0.37790665 -0.011859668 0.4890707 0.017427381
-0.27330112 -0.77475524 0.47020236 0.32714373 -0.40654123 -0.12959038 -0.18916857 0.7755007
0.56389725 -0.46697426 -0.10922316 -0.033834267 1.9266485 0.95662177 -0.7083465 -0.47542894
-0.5018456 0.39539012 0.13040149 -0.73886514 0.068286195 -0.045190893 0.3046184 0.27490523
-0.41964242 0.9033667 -0.23195142 0.5132093 0.012112651 -0.17336309 -0.40875363 0.19797033
0.2406784 -0.27207458 0.15166615 -0.82229376 -0.23686734 -0.24369176 0.12721197 -0.4113189
0.5418764 -0.17686915 1.2655599 0.14025852 0.2903964 0.3167741 0.006565501 -0.008441797
0.5593201 -0.32082647 0.6584642 -0.6586709 -0.4603493 -1.3402901 -0.16791375 -0.52962047
0.16232298 -0.17368247 0.35843438 -0.10574701 -0.45162386 0.35848707 0.045252733 -0.16369438
0.08818394 -0.47820222 -0.38687888 0.55540943 -0.020471914 0.21846944 -0.43606266 0.78892475
-0.31952277 -0.613441 -0.5387676 0.4399385 -0.23982295 0.055614103 0.073419176 0.22609785
0.2822427 -0.33183137 -0.5574428 -0.0011072269 -0.8896156 0.32151324 -0.44457284 -0.33828568
0.9066269 0.79225266 0.082027055 -0.21517937 -0.00063496066 0.0060816854 -0.89431185 0.18170375
0.15737647 0.31115282 0.07639363 -0.5732044 0.42179692 0.51051915 0.3540084 0.23043475
0.7590715 -0.89570284 0.027416967 -0.50702614 -0.207435 -0.23132117 -0.7115492 -0.53212225
0.17368086 -0.14929372 -0.6060861 0.2648044 0.2521399 -0.036202393 0.17637745 0.19853729
0.34643412 -0.61913645 0.17299779 0.45277062 -0.11149626 -0.036214747 -0.05501774 -0.12462988
0.17601492 0.3214824 0.05007531 -0.28237805 -0.9131316 -0.28922328 -0.041451715 -0.5605992
0.97877973 -0.38135082 -0.015380633 -0.27009577 1.1266743 0.6271111 -0.10796027 -0.29954118
-0.03114937 0.07244809 0.17442918 -0.042906385 -0.62865156 0.354729 0.41634616 -0.028596334
-0.4518775 -0.17843306 -0.10974103 -0.2599666 -0.12573081 0.18742073 0.6306618 0.14730635
-0.077012785 -0.06399844 0.4266297 0.16206756 -0.43873674 0.30469888 -0.11788752 -0.53640366
0.73626244 0.036613032 0.7822975 -0.17194125 -0.6620845 -0.106471166 -0.13849041 0.56081957
0.110640116 0.22733496 -0.4304924 0.1370132 -0.06365753 -1.0283977 -0.23891759 0.5453491
0.5266976 -0.31187698 -0.23637278 0.05206371 0.2744447 -0.09976393 0.37423962 0.2327253
-0.2457552 -0.6023055 0.72960025 -0.1321502 -0.08619813 0.17597143 -0.19786698 0.794711
0.23216444 0.6517425 0.03541358 0.14361759 0.13265212 0.7513674 -0.3338643 -0.3224341
-0.6259382 0.23841004 -0.0008992633 -0.29562315 0.88642526 0.25823098 -0.22398938 0.93383306
-0.73718566 -0.4562306 0.10523742 -1.0660703 0.3989541 -1.0761471 -0.73621064 0.27379805
-0.67999053 0.0626688 -0.5227455 0.014540783 0.054787975 -0.16606879 -0.5612008 0.2316883

lstm.bias_ih_l0 f4 [256]
00000000: 0841 10bf 8326 ebbe f9ef 91be f2b6 00be
00000010: 9a60 e33c 1f7a aabd b40e eabe df55 ee3c
00000020: 1a13 80be 49c2 91be d297 2cbf 34f3 3fbf
00000030: 66b1 04bf e6a5 1dbf 9cb7 0abf 2084 45be
00000040: 8547 5ebe a47f 06bf a944 28be 8c05 9dbe
00000050: 0f79 3fbe 34e3 1fbf 9e64 14bf efac 31bf
00000060: df45 bbbe bdfb c53c f89f c8be a3d7 5ebe
00000070: 79d4 f7be ad25 58be 8814 46bf 0edb 96be
00000080: 767a 15bf 0905 a7be a604 57be e834 51bf
00000090: 3693 d1be c3c6 02bf 15a3 bf3c 5d78 f1be
000000a0: 1cbe 55bf 58ed 36be 417a 453e 17e3 46bf
000000b0: 607e ccbe 33e1 1abf 266d 88be 93a0 22be
000000c0: 3169 b5bd 075d b6be 1105 a8be 35d5 13bf
000000d0: 0a9d 19be c156 aabe 14e8 0b3c 43b7 62bc
000000e0: 60ab 57bf e006 88be ae90 06bf c1cc da3d
000000f0: 2161 8dbe bf6f 60be da80 3bbf 2044 5ebe
00000100: dbe4 09bd 3e0d 6cbe e411 99be dd31 513c
00000110: def6 2b3d 9a9b b3bc 1dca 39be a23d debc
00000120: 39b9 bbbe 3611 fe3d 775a edbe ffae 10bf
00000130: 0d7f 09bf 6145 a9be e25f c8be a3ef 98be
00000140: de49 b6be 2f5c 8abe 07b9 4a3e d075 97be
00000150: c421 bfbe 0014 1fbf dc3d 803e 939c 21bf
00000160: 7979 893e 5fb1 49bd 33c6 29bf 4fd0 e7be
00000170: 3151 17bf 8f3e 33be 9b36 3dbd 81c6 9abe
00000180: 49cd 3d3e 9248 a7be 70e0 6b3e 314e 58be
00000190: ddf7 2fbc c1a1 8abd ebb0 0c3e f6da ef3d
000001a0: e04d 64be 2032 56bf 36d6 ef3e 04cf c2be
000001b0: 6b41 d4be f935 d93e 5108 863e 3df3 523e
000001c0: 9953 81be 3c82 a83e 2738 bd3b c788 36be
000001d0: 3a81 76be 5692 9e3d 37f7 87be 59bd a33e
000001e0: 56e5 5bbf 4e7f 2dbe f6cb f8bd 3c5e 7cbe
000001f0: bd41 6dbe bca3 753d 0540 0dbf 83e0 59be
00000200: d4e4 f0bc 3732 a53d 5ea5 35bc 17bd 86bd
00000210: 82f7 a8be 0a37 2bbe 0db0 253e 7922 823e
00000220: 7f37 373e d223 1abe 7d4f a43c def6 da3d
00000230: 9bee e53d 4908 f3bc e29f 193d 4d6c b93d
00000240: 395c 2fbe 9d33 45be 1d54 56bd ae9c 3dbe
00000250: 0ab1 59be 7205 893e bcd2 373e 0eec 18be
00000260: 6d55 313e e92e bf3e ecda 5c3d 6a84 57be
00000270: 7f29 20be 46cd 56be 7adc c53d b35b 773e
00000280: 0ef0 f3bc 2553 39be 9956 7e3d d65f a33e
00000290: a89a ac3d a865 7f3e 3d69 47bd 749e d73e
000002a0: 0133 acbd 69ba e33d d0cc 6e3c 2e74 01be
000002b0: 542c c83d 61b0 a4bd d14f 043e 07af 9a3e
000002c0: a736 66be 526e 753e a9ae 80be 6b92 36be
000002d0: 74d1 103e 7c5a 89be bb10 3f3e 77c3 473c
000002e0: 1d94 863e 23a8 333e 10a9 f4bd 3709 9bbe
000002f0: 04e0 8ebd ab98 d1be e4de c9bd 598c cebe
00000300: c8fd 0cbd 7dd8 97be 9110 bdbe a2e1 9cbe
00000310: 8b9f 06be e8de 30bd 5a04 b5be 808c a0be
00000320: df0f 08bf b4da babe a2d0 d9be 9ef7 55bf
00000330: c916 33bf af76 06bf e7e3 0dbf 574b 9fbe
00000340: d6dc 31be 9ba5 ddbe 5537 ddbe 539f e7be
00000350: 9269 27be 4f5a a2be 6193 83be c5d1 18bf
00000360: d275 d4be c1db babe 3954 c0bd 4fa1 90be
00000370: 53ac 12bf 0259 e3bd a27a 8abe bc80 7fbe
00000380: fe08 07bf 4d4f ebbd dccf 88be 7f9b 5cbf
00000390: 4e11 9cbe 63a1 4bbe e964 d5bd fb27 39be
000003a0: e062 4cbf 7906 61bd 1141 3c3c 5bae 4ebf
000003b0: 0403 76be adce f5be 81c0 dcbe 4b2e cdbe
000003c0: e2a6 8abe c13a b7be c842 2ebf ac1a f8be
000003d0: 0d7a 3bbe 63d0 bdbe f093 c2bd edf2 06be
000003e0: 3d74 59bf fd2b abbe 105f 2fbf 5a93 05bd
000003f0: ca5b babe 8018 cdbe 3eb1 8fbe 4446 8ebe
-0.5634923 -0.4592782 -0.28503397 -0.12569788 0.027756024 -0.08324074 -0.45714343 0.02909368
-0.25014573 -0.2846854 -0.6741916 -0.74980474 -0.5183319 -0.61581266 -0.54186416 -0.19288683
-0.2170697 -0.52538514 -0.16432442 -0.30668294 -0.18698524 -0.6245606 -0.5796603 -0.694045
-0.36576745 0.02416789 -0.39184546 -0.21761946 -0.4840429 -0.21108122 -0.7737508 -0.29464
-0.58389986 -0.3262103 -0.20997867 -0.81721354 -0.40932626 -0.51084536 0.023393193 -0.47162142
-0.8349321 -0.17863977 0.19284917 -0.7769026 -0.39940166 -0.60499877 -0.26645774 -0.15881567
-0.08857954 -0.3561785 -0.32816365 -0.57747203 -0.15001312 -0.33269313 0.008539218 -0.013837638
-0.8424587 -0.26567745 -0.52564514 0.10683585 -0.27613166 -0.21917628 -0.73243487 -0.21705675
-0.03366552 -0.23051926 -0.29896462 0.012768236 0.041983478 -0.021924783 -0.18143506 -0.027128998
-0.3666475 0.124056265 -0.46358082 -0.5651702 -0.5370949 -0.33060744 -0.39135653 -0.29870328
-0.3560323 -0.27023456 0.19797145 -0.2958207 -0.3733045 -0.6213989 0.25047195 -0.6312954
0.2685049 -0.04924142 -0.66318053 -0.45276114 -0.59108263 -0.17504333 -0.046194654 -0.3022957
0.18535341 -0.32672554 0.23034835 -0.21123578 -0.010740248 -0.06769133 0.13739364 0.11711685
-0.22295332 -0.83670235 0.46843117 -0.38048565 -0.4145616 0.4242399 0.2617822 0.206006
-0.25259092 0.3291186 0.005774516 -0.17825614 -0.24072734 0.07742755 -0.26555797 0.31980398
-0.85896814 -0.16943094 -0.121482775 -0.24645323 -0.23169608 0.059970602 -0.5517581 -0.2127705
-0.029405989 0.08066218 -0.01108679 -0.06579035 -0.33001333 -0.16720214 0.1618044 0.25416926
0.17892264 -0.15052727 0.020057434 0.106916174 0.11227151 -0.029667037 0.03750599 0.0905386
-0.17125024 -0.1925797 -0.05232631 -0.185168 -0.21258941 0.26761967 0.17951483 -0.14933798
0.17317744 0.37340477 0.053919718 -0.21046606 -0.1564083 -0.20976743 0.09661193 0.24156074
-0.029777553 -0.18098123 0.062094305 0.31909055 0.08427936 0.24941123 -0.048684347 0.42113078
-0.08408166 0.11119539 0.014575198 -0.12641975 0.0977408 -0.08041454 0.12921073 0.3021166
-0.22481786 0.23967865 -0.25133255 -0.17829292 0.141424 -0.26826847 0.18658726 0.012192599
0.26284876 0.17544608 -0.119463086 -0.30280468 -0.06976321 -0.4093679 -0.09856966 -0.40341452
-0.034421712 -0.29657355 -0.36926702 -0.30640894 -0.13146798 -0.04318133 -0.35354882 -0.31357193
-0.5314922 -0.36494982 -0.42541987 -0.8358096 -0.6995664 -0.52524847 -0.55425876 -0.31112167
-0.17369398 -0.4329041 -0.43206277 -0.45238742 -0.16348866 -0.31709525 -0.2569838 -0.5969508
-0.4149614 -0.36495784 -0.09391064 -0.2824807 -0.57294196 -0.11100961 -0.27046686 -0.24951452
-0.52748096 -0.11489735 -0.26721084 -0.8617477 -0.30481952 -0.19885783 -0.10419638 -0.18081658
-0.7983837 -0.054937813 0.011490122 -0.80734795 -0.24024588 -0.48009244 -0.4311562 -0.4007438
-0.27080446 -0.35787013 -0.6807065 -0.4845785 -0.18308277 -0.3707305 -0.09500873 -0.13178606
-0.8494299 -0.33431998 -0.6850443 -0.03261123 -0.36398154 -0.40057755 -0.28064913 -0.27787983

lstm.bias_hh_l0 f4 [256]
00000000: 2a58 0dbf 8b7a 95be df3a 91be b81f 833d
00000010: 394e 1bbd eff4 c5bd 7e4d 00bf 1dad 21be
00000020: 3d5c aabe e2dc f8bd e746 03bf b5f6 54bf
00000030: c953 07bf 91b3 26bf 16d7 f5be ba3f 71be
00000040: b16e 04be 06d2 10bf f868 16be 1c9a e9be
00000050: 888c 8cbe a6ee 19bf beed ecbe 2696 3dbf
00000060: 36e0 f2be 9102 33be 619e debe 6f94 a8be
00000070: abc5 c2be 9444 8abe 375e 28bf 64b2 b6be
00000080: def2 e7be 0515 aebe 466f debb 9835 55bf
00000090: 787e 8abe 837f 0dbf 9879 f9bc d2ca 93be
000000a0: e6f1 6abf e223 63be 21b1 243e 835f 2cbf
000000b0: 3586 fabe f4b1 05bf 29cb 25be 04a1 dabd
000000c0: 2d51 87bc 50d8 01bf 1f0d b7be 7460 02bf
000000d0: 5b8d d73b 7e5f d9be 79c1 bebd f852 9dbd
000000e0: e112 4bbf 0af6 63be 6865 b2be a72b 183d
000000f0: 32cb a3be f5bc 7dbe 450a 07bf 35b1 0bbe
00000100: df64 7a3d 752b 73be fa29 51be be08 47bd
00000110: 3ceb 4f3e f4d2 023e 7147 63be 0b0d 87bd
00000120: 4f0d 81be e1cc f13d b410 92be 7d27 1cbf
00000130: 1018 c9be 8830 bebe 33db 6dbe 9ac9 62be
00000140: 7772 62be 5f9f 47be b198 453e 0c5d fabe
00000150: 52c9 a4be bbcb d5be b411 c23e cb00 04bf
00000160: 0e84 aa3e 51a4 c4bd 5e99 44bf 3ebb e3be
00000170: f377 17bf dd7f 97be 745b 00bd 91c1 14be
00000180: 2433 853e d57e 6cbe 3bc0 243e 7b96 72be
00000190: 5693 d1bb e0c2 21be 98a0 f73d c6ac 2a3d
000001a0: 2771 8bbe 9920 45bf 8b9d c43e 6898 e9be
000001b0: e8b1 e0be 7caa c93e 6af2 d23e 8844 a93e
000001c0: e9cd 99be 2e7a b53e aedc 793e 3b7f 5cbe
000001d0: a93d 83be 4936 5e3d 3197 d5be dbc8 c83e
000001e0: c868 46bf 1844 b2bd 1eeb 24be 8937 3ebe
000001f0: 1fdd 3dbe 2f71 d93d 2caa febe 7e3b 2fbe
00000200: a8b9 413d 488c 993d e777 733d 7b4a 19be
00000210: 73ec f7be dff7 44be 3fce 053e ef79 d13e
00000220: 67bd 073e ce14 d3bd 1687 19bd 6346 823d
00000230: 3579 833e 16c3 b1bd 87d9 efbb 151f 463e
00000240: be49 923c ec54 a5bd ea23 a1bc 15ab 5abe
00000250: b4c0 41be 1ddd 583e 321e 923d 14a0 b1bd
00000260: 7e13 8a3d a5e6 8b3e b63e 703d 4b2d a43c
00000270: e507 553d 458a ebbd 4f03 5f3e dc23 753e
00000280: e0a2 ab3c 1c2f 71be 6675 1c3e f6e0 193e
00000290: 5279 843e b89a 513e 9437 70be b1b9 7f3e
000002a0: bf3c 09be 1567 843d 720f d5bd 3182 0fbe
000002b0: 4fd6 443e 0094 11bd e364 60bd 2966 123e
000002c0: 1f25 ecbd 3350 563e 1f12 58be 81e7 68bd
000002d0: 4c6a b139 39b0 2dbe a51b 053e 4082 24bd
000002e0: bfce 8c3e 0a8f ad3e 6dae 49be 910a c2be
000002f0: b165 1fbe c768 afbe ba4c 7cbe b39b bebe
00000300: f569 56be 6bf7 cbbe 42b5 41be feb8 37be
00000310: 4172 a9be 3a46 42bd a701 dabe 3972 98be
00000320: 56d1 cabe c11a 39be bbf9 04bf 6e9a 42bf
00000330: dda8 23bf 7ea6 afbe 0417 31bf 8c1d d4be
00000340: 9661 6fbe cd0d 21bf f090 abbe d78a f7be
00000350: 5010 4cbe a9be 3bbe 488c bcbe 27c9 e5be
00000360: 78cd d6be 5c8c 04bf 8382 cabd e75e 82be
00000370: ed93 febe a792 8bbe 3886 a2be 9887 a8be
00000380: 4367 0abf 92cb f2bd 2a08 58be 0d75 2abf
00000390: 4f1c bebe 2e31 96be c29a b43c c790 a9be
000003a0: d020 71bf b7ce 47be a3e9 25bd 363c 48bf
000003b0: 23a6 53be 7f01 b4be 6e44 cfbe 5c9a 01bf
000003c0: 8256 43be b4d1 aebe a02a 02bf 63c9 bebe
000003d0: fe77 1dbd c0a1 a2be ed66 e6bd befc adbe
000003e0: 7bc9 41bf 16a6 b1be a0c5 4abf d579 3cbb
000003f0: fc04 f0be d768 a3be 630b 63be fc4e bebe
-0.5521265 -0.29195055 -0.28365228 0.06402534 -0.037916396 -0.09665858 -0.50118244 -0.15788694
-0.33273497 -0.12151505 -0.51280063 -0.83188945 -0.5286222 -0.65117747 -0.4801566 -0.23559466
-0.1293285 -0.5657047 -0.1468848 -0.4562539 -0.27450967 -0.60129774 -0.46275133 -0.74057233
-0.47436684 -0.17481448 -0.4348021 -0.32925746 -0.38041434 -0.27005446 -0.6576876 -0.35682976
-0.4530248 -0.34000412 -0.006788167 -0.832849 -0.27049613 -0.5527269 -0.030453488 -0.28865677
-0.9177536 -0.22181657 0.16083194 -0.6733324 -0.48930517 -0.5222466 -0.1619078 -0.106752425
-0.0165182 -0.5072069 -0.35752198 -0.50928426 0.00657813 -0.42455667 -0.09314246 -0.07681841
-0.7932568 -0.22261825 -0.34842992 0.037151005 -0.31990963 -0.24779113 -0.52750045 -0.13641818
0.061131354 -0.23747046 -0.20426169 -0.04859232 0.20304579 0.12775785 -0.22195221 -0.065942846
-0.25205466 0.11806656 -0.28528368 -0.60997754 -0.3927617 -0.371464 -0.23228149 -0.22147217
-0.22113977 -0.19494389 0.19296528 -0.48899114 -0.32184845 -0.41756997 0.3790413 -0.5156371
0.33303875 -0.09601653 -0.7679652 -0.44478792 -0.59167403 -0.2958974 -0.031337216 -0.14526965
0.2601558 -0.23095258 0.16088955 -0.23690216 -0.0063957376 -0.15796995 0.12091178 0.041668676
-0.27234766 -0.77002865 0.38401446 -0.4562409 -0.43885732 0.39387882 0.41200572 0.33060098
-0.3003991 0.35444778 0.24400589 -0.2153291 -0.2563298 0.05425099 -0.41716912 0.3921574
-0.77503633 -0.08704394 -0.16105315 -0.18575872 -0.18541382 0.10617291 -0.49739206 -0.17112538
0.047296196 0.0749746 0.05944052 -0.14969818 -0.48422584 -0.1923518 0.13066958 0.4091334
0.13255845 -0.103067026 -0.037482344 0.063610815 0.2567841 -0.08679788 -0.0073196325 0.19347794
0.017857429 -0.08072838 -0.019670445 -0.21354325 -0.18921167 0.21178098 0.071346655 -0.086731106
0.06741999 0.27324405 0.058653556 0.020041129 0.052009482 -0.11500982 0.21778606 0.2393946
0.020951688 -0.23553127 0.15279159 0.15027222 0.2587381 0.20469177 -0.23458701 0.2497318
-0.13402079 0.06464974 -0.104033366 -0.14014508 0.19222377 -0.035541534 -0.054783713 0.14296784
-0.11530518 0.20929031 -0.21100663 -0.056861404 0.00033839268 -0.16961755 0.12998827 -0.04016328
0.27501485 0.33898193 -0.19695444 -0.37898687 -0.15566136 -0.34259626 -0.24638644 -0.37228164
-0.20938857 -0.39837202 -0.189168 -0.17941663 -0.3309498 -0.047430255 -0.42579386 -0.29774645
-0.39612836 -0.18076612 -0.5194356 -0.7601689 -0.6392954 -0.3430671 -0.69175744 -0.41428792
-0.2337707 -0.62911683 -0.33509016 -0.48348114 -0.19928098 -0.1833445 -0.36825776 -0.4488003
-0.41953635 -0.5177667 -0.098881744 -0.2546303 -0.49722233 -0.27260324 -0.31743026 -0.3291595
-0.54063815 -0.11855234 -0.21096864 -0.66584855 -0.37130973 -0.29334396 0.02204645 -0.3311827
-0.9419069 -0.19512449 -0.040506016 -0.78216875 -0.20668845 -0.3515739 -0.40481895 -0.5062616
-0.19075969 -0.34144366 -0.5084629 -0.3726302 -0.03844451 -0.3176403 -0.112501 -0.3398189
-0.7569806 -0.34697026 -0.792078 -0.002875914 -0.46878803 -0.31915924 -0.22172312 -0.37169635

lstm.weight_ih_l1 f4 [256, 64]
00000000: a80d 7dbf 9398 6c3f 8b28 e93e 9f4e 37bf
00000010: 5c42 b83e b35d 54bf f71c 6bbd 2222 a43e
00000020: 6207 abbf 043e acbd f8b4 2e3e bd48 3c3d
00000030: 1dab 81bf a24a 713f e149 d5bd dc8f 853e
00000040: a89b 533f 3e60 a13e 0bf7 0e3f 1635 adbe
00000050: 429b 4a3f 705d c9be e84e 13bf 372a 51be
00000060: 51ee 023f e7f9 f43e 883a 703e f535 21bf
00000070: 4716 07bf a9dd f4bc f4fe 13bd de79 8dbe
00000080: aa86 1dbe c7c4 02bf caec b83d cdb8 30bf
00000090: d064 5ebe 6db6 26be b85b f23e 975c 1cbf
000000a0: 1419 193f 2c83 bdbe f0e2 0fbf f0c9 f7bd
000000b0: bc8c 423f ac27 123d 0c9f 5e3e 74bf 4c3e
000000c0: a6d1 d5be 7a62 e23c 1bc0 62bf 3ce2 843f
000000d0: 5c86 fc3e 1bf2 5dbf 2184 9f3c 31fc 8b3e
000000e0: 441c babd c11b 203d 2bec d53e 036e 2abf
000000f0: 4f7c f2be eedb b0be 2c70 f63e 9314 89bd
00000100: 1f23 18be aba2 6ebe 17df 403e af99 183f
00000110: 6da9 2b3f b165 a33e 9069 3d3f b476 62bf
00000120: 9d1f a9bf 3734 f3be b089 213e ecc6 f2be
00000130: 0524 ab3e 5b94 f93e 73d2 29bf 48b5 adbe
00000140: df63 793e dba5 b93e 1940 253e 6e91 433e
00000150: 79f5 ee3e 794d 423f 7559 ff3e aa41 783d
00000160: 296e 2c3f 36d1 a3be cdd7 27bf 4218 50bd
00000170: d35f 8e3e ba64 b73e 80f5 18be 92da d23b
00000180: 5b63 993c 952c 963d af81 f03e e913 d73e
00000190: de12 2fbe f4ea c2be 514b 673f a80c 3fbf
000001a0: 2e80 003e e2f2 933e 5e44 6ebe e4fb 373e
000001b0: 95ff 9b3e ca2f 8c3e b741 ef3d 5289 95bf
000001c0: 1c0f 163f 6078 7f3e 0c76 a13f 46c5 f23e
000001d0: 649e 0a3f 713c 9a3d 8f8d 7ebe e028 503f
000001e0: a624 96bf 143d bebe dd1c 313e 3fa0 a33c
000001f0: 17c9 923e 9672 febe c689 2d3f 0f9f 353e
00000200: 9cd8 6cbf fa25 953e d2ca 043e 842d e0be
00000210: bd29 cf3e ddd5 193f 73af de3e a856 67bf
00000220: be61 9dbf 4b86 26bf b1e9 283e 49ad 653e
00000230: 1f61 9e3d 33f3 9d3e 1f27 6fbe 5fab bc3e
00000240: de0c 1f3f e6c5 b23e 89f4 5e3d 3542 30bd
00000250: 6725 383d 474e e9be e3c1 32bd 3f8a 9d3c
00000260: ff4e 743f 2fa5 c0bb 04df 26bf 0bfe 03bf
00000270: 7796 6cbe 433a 923e b67c 93bf 25e3 14bf
00000280: 2c94 823d 8edc cebe 6b54 25bf 3a84 253d
00000290: 14d6 02bc 6008 953c 6608 3c3f c6e2 e03d
000002a0: 2b82 39be b144 353d 72b8 7f3e 13a2 663d
000002b0: 36d2 383f fa7d 473f b76c 643d 4b22 71be
000002c0: fd45 05bd ee4f 5b3e 398c 37be 1dad d53e
000002d0: 5d63 ab3f 682c 9bbe d5c5 213f 75cb f93e
000002e0: ccb0 c6be c3f6 833e 6ff4 173f 8449 c4be
000002f0: 3721 dfbe ff60 0dbf 53a7 803e 1e99 59be
00000300: ab06 ccbe 658b 143e 5518 64be 6534 1b3f
00000310: 313f fd3e ca17 183c 0e0e 5d3f 4c5b 63be
00000320: c867 03bd 0e9a 7c3e 0e36 373f 4cc3 04bf
00000330: 402e 07bf 2049 51bf f8a4 af3e e804 a23d
00000340: beb8 f8be 0b6c d53e 25c3 a03c 3d2d 27bf
00000350: 7f02 9a3c dba0 69be 8c0f 05be 9e55 aa3e
00000360: 0400 c2be c6e2 2bbe abe6 55bd 9863 5c3e
00000370: ca13 12bd 4197 d8bd ed3f 21bf 1bad 933f
00000380: 4168 05bd 1e51 cc3e 875a 83be e517 0abf
00000390: 6461 99be 66fe e43d ec6f 6a3e 25b9 bbbd
000003a0: 2793 14bf 05ec 95be 7999 bfbe ba3e 093f
000003b0: 7762 103e 41c0 7e3d 6dfc 08bf 73e5 8cbe
000003c0: 22c8 2f3d e514 fabd 5632 aabe fa3d ccbe
000003d0: 0bf3 52bf 1556 1dbf 2add 543e 4849 febd
000003e0: bfbb 18be 647f 673e 2869 013d 6646 9fbf
000003f0: 87dd b5be d1bc 66be 3ab8 0abe 2182 3ebe
-0.9884896 0.9242031 0.45538744 -0.7160434 0.35988128 -0.82955474 -0.05740067 0.3205729
-1.3361628 -0.08410266 0.17061222 0.045967806 -1.0130345 0.94254506 -0.10414482 0.26086318
0.8265939 0.3151874 0.5584571 -0.33829564 0.79143155 -0.393291 -0.57542276 -0.2042626
0.5114489 0.4784691 0.23459828 -0.62972957 -0.5276837 -0.029890852 -0.036131814 -0.2763204
-0.15383402 -0.5108151 0.09029539 -0.69031984 -0.21718144 -0.16280527 0.473356 -0.6107878
0.5980389 -0.3701414 -0.56205654 -0.120990634 0.75995994 0.035682365 0.21740359 0.19994909
-0.41761512 0.027634848 -0.8857438 1.0381541 0.49321258 -0.8669755 0.019472184 0.27340844
-0.090874225 0.03908897 0.41781744 -0.66574115 -0.47360465 -0.34542793 0.48132455 -0.06693377
-0.14857148 -0.2330424 0.18835102 0.596095 0.670554 0.31913522 0.739892 -0.88462377
-1.3212773 -0.47500774 0.1577518 -0.4741739 0.33425918 0.48746 -0.66336745 -0.3392737
0.24354504 0.3625935 0.16137733 0.19098446 0.46671656 0.75899464 0.49872938 0.060609497
0.6735559 -0.31995553 -0.6556366 -0.050804384 0.27807483 0.35819036 -0.14937401 0.006434747
0.018724134 0.07332722 0.4697394 0.42007378 -0.17097041 -0.3806988 0.903493 -0.74628687
0.12548897 0.28896242 -0.23268268 0.17967182 0.3046843 0.2738021 0.11682456 -1.1682532
0.58616805 0.24948263 1.261415 0.47416133 0.54147935 0.075310595 -0.24858688 0.8131237
-1.1729934 -0.37155974 0.17296167 0.019973872 0.28669044 -0.49696797 0.6778835 0.17736457
-0.9251802 0.29130536 0.12967995 -0.43784726 0.4046153 0.60091954 0.43493232 -0.903666
-1.2295454 -0.65048665 0.16495396 0.22429384 0.07733368 0.3084961 -0.23354767 0.36849496
0.6212901 0.3491661 0.054432426 -0.04303189 0.044957545 -0.45567533 -0.043641936 0.01923096
0.9543304 -0.0058790664 -0.65184045 -0.51559514 -0.23104273 0.28560075 -1.1522434 -0.58159095
0.06375918 -0.40402645 -0.64581937 0.040409304 -0.0079856105 0.01819247 0.73450315 0.109807536
-0.18116061 0.044254962 0.24972704 0.05630691 0.72195756 0.779266 0.05576774 -0.23548238
-0.03253745 0.2141721 -0.17924584 0.41733637 1.3389698 -0.30307317 0.6319249 0.48788038
-0.3880676 0.25774202 0.5935735 -0.38337338 -0.43580028 -0.5522613 0.25127658 -0.21249816
-0.39848837 0.145063 -0.22274907 0.6062682 0.49462274 0.0092830155 0.8634957 -0.22202796
-0.032081395 0.24668142 0.71566856 -0.518605 -0.52804947 -0.81752205 0.3430555 0.07911092
-0.48578447 0.41683993 0.019624302 -0.65303403 0.018800018 -0.22815268 -0.12994212 0.33268446
-0.37890637 -0.16785726 -0.052221935 0.21522367 -0.035663404 -0.105757244 -0.6298817 1.1537203
-0.032570127 0.39905638 -0.25655004 -0.5394271 -0.29957116 0.11181335 0.22894257 -0.09166173
-0.58037037 -0.2928163 -0.37421778 0.5361134 0.14100061 0.062195066 -0.5351017 -0.27518806
0.04291547 -0.122110166 -0.33241528 -0.39891034 -0.82402104 -0.61459476 0.20787492 -0.12416321
-0.1491537 0.2260719 0.031594425 -1.2443359 -0.35520574 -0.22532965 -0.1354684 -0.18604328

lstm.weight_hh_l1 f4 [256, 64]
00000000: 7a99 bcbd f5d6 a2be fb4e 9e3e d8b2 273e
00000010: 4592 ce3d 18f1 4d3e 4487 fc3d 1e13 03be
00000020: 84e6 05bd bd77 e83d 99ea 493d f935 04bf
00000030: 5011 fa3e e1b4 273e 2e24 c2bd 18ee d6be
00000040: f86b fe3e 339e ef3b 0d4c 6ebe 8f43 c93e
00000050: 881e a3be 3253 6e3d bb17 973e db99 a1bd
00000060: e134 c1be 379f 6bbc 75b7 b6bd 96fd 2c3e
00000070: 91cb de3e 51e1 04bf 228b 153f 85ff 183f
00000080: f96f 253e 9110 d8bd 71d5 c33e e987 1fbf
00000090: 1b73 263d 4aee 6e3e f32e 5fb9 b823 b13c
000000a0: 44d5 753e 2fb1 0b3f 85c3 cebe 9650 d33d
000000b0: ae71 65be bd77 103d 8773 3abe 283f 443e
000000c0: d00c d63d 3d4a 1f3e c942 dc3d a792 00bf
000000d0: a4c4 5abd 4825 bebe 6373 583e c751 d8be
000000e0: d013 c13e 9000 ebbe 3b94 0fbe b22c 9d3d
000000f0: 80ae dabe 3e17 7ebe be10 70bf 9465 19bd
00000100: af15 043e 5df3 f23d 6b64 8c3e d8a5 b4bc
00000110: 4ede 10bd ec26 71be f175 00bf f1ee bb3e
00000120: 9c6d b73e a83a a63d f610 91be aea8 67be
00000130: 9933 52bd f898 b5be b4d1 8ebc 662e a73d
00000140: c15f 033e b82c 8a3e 13d6 6c3d 22a4 0e3e
00000150: 1536 6ebe 6e68 d53d cb16 05be 2708 c73e
00000160: 3789 acbd 9244 07bf bf18 d2bc bc18 463e
00000170: d1c0 babb aa0c a13d 0611 4cbe a647 953e
00000180: c2ff 0d3f d582 d73d 6760 473e e7cc f9be
00000190: a088 873e fbd2 29be 88a2 383e aea0 343f
000001a0: f624 853f 68dc d73d 90e1 88be d5bb 95be
000001b0: 946b 1f3e ffa0 083e b868 4bbd 41ae 4b3e
000001c0: 3b6d 1c3e 28fa b63d 1d4e d13e 6e3f 0dbe
000001d0: b90f 5dbe 6869 e93e d2cc d5bc cfb6 82be
000001e0: 8ee3 2fbe 5754 11be 2921 863e a4e6 1fbd
000001f0: 9ae5 ee3c 2f7f f7be 72cc d2bd df10 673d
00000200: ca5c 8ebe e21a 91be 1020 67be ae0d 4b3e
00000210: 365a 7b3e 3ae6 d83e f6df f5bc 4159 7e3e
00000220: 0ade 0e3e 4a74 64be 7da5 033f c9d7 87be
00000230: 0872 4e3f aec0 343e c1b0 8e3e f792 5bbd
00000240: 3dd5 af3e 5c63 a53e 0cdc 92be f52a 2e3e
00000250: e0b1 db3d 1c51 55be e9fe 1e3f 5371 38bc
00000260: f51b dc3d 0881 fa3e 3b2c 653f 6b80 6abe
00000270: 876d 8f3e 49c2 26be 0174 a83e 7208 003f
00000280: efe8 d43d 8b62 8bbe ecf4 33be 30f9 93be
00000290: 0d93 9a3e 3ba8 693e 38ed 3cbe 083e 74be
000002a0: 157a 353e f6cf 843e 8a21 5ebf f2d7 b03e
000002b0: 5e4e 8ebc 1f40 3fbe 14f6 4fbe c90f 7f3e
000002c0: f0ef c8be 181b 8e3e 3646 78bd 13be 39be
000002d0: 3e0d b23d e920 c5be 73e0 acbd e189 24be
000002e0: b898 883d d27d e5be c731 ad3c 0614 103e
000002f0: 24c6 47be 6a69 e1bd f9f9 a2be fd70 10bf
00000300: 5327 7b3e d850 183e 133d 81be 9a47 3c3e
00000310: d53d 3e3e 0575 253e d6eb 0fbe 3231 a53d
00000320: c382 17bf e4a7 0d3e b1cb c33e a655 f2be
00000330: 3c1d 88be 38df 583e 283a 393e 9829 c23e
00000340: 6829 0a3d 4bd2 84be ad58 c53d 2a33 1b3e
00000350: 0c52 a13e cfa4 3b3e 9075 c5bd 3918 6d3e
00000360: 0be4 e8bb 5f7f a63e 318f 16be b169 dd3d
00000370: 7176 1e3e 249d 3abe 9e99 1e3e 0131 81be
00000380: 0441 a8be 20cc 733d 809e a7be dacd f1be
00000390: 4126 a2be c153 9ebc 24d5 b43e db2b 38bf
000003a0: 1e6c 50be 8aa0 cebd 90ac 85bc a7af be3e
000003b0: 6b25 7cbd 04da 143e 8db5 6f3e 6432 4ebe
000003c0: b197 863e 0378 543e b2c4 42be 0394 38be
000003d0: 1f5a 493e 5b8f 07be dea1 d8be 5de7 98bb
000003e0: 76a9 6e3e 6849 e0bd ed9a 86bd 4e25 46bc
000003f0: c5fb 49bb 03f1 ee3e 2ecf 343e 99f3 65be
-0.09208961 -0.31804624 0.30919632 0.16376817 0.100864924 0.20111501 0.12330487 -0.12800261
-0.03269054 0.11350963 0.049295995 -0.51644856 0.48841333 0.16377594 -0.09479557 -0.41978526
0.4969175 0.00731256 -0.23271199 0.39309356 -0.3185923 0.05818481 0.29510292 -0.07890674
-0.37735656 -0.0143812215 -0.089217104 0.1689361 0.43514684 -0.51906306 0.58415425 0.5976489
0.16155995 -0.10550035 0.3824878 -0.6231676 0.040637117 0.23333088 -0.00021284427 0.021623477
0.24007136 0.54567236 -0.40383545 0.10318105 -0.22406647 0.03527044 -0.18208133 0.19164717
0.104516625 0.15555663 0.10754926 -0.50223774 -0.053410187 -0.37137818 0.21137767 -0.4224989
0.37710428 -0.45898867 -0.14021389 0.076745406 -0.42711258 -0.24813554 -0.93775547 -0.037450388
0.12898897 0.11862824 0.27420363 -0.022051737 -0.035368256 -0.23550004 -0.50179964 0.36705735
0.35825813 0.081166565 -0.28333253 -0.2262294 -0.05131874 -0.35468268 -0.017433979 0.08163147
0.12829496 0.26987243 0.057821345 0.13929799 -0.23262818 0.10420309 -0.12996976 0.38873407
-0.08424609 -0.52839005 -0.025646565 0.19345373 -0.005699255 0.078637436 -0.19928369 0.29156226
0.5546838 0.10523001 0.19470368 -0.4878914 0.26471424 -0.16584389 0.18030751 0.7055768
1.0401905 0.10540086 -0.2673459 -0.29244867 0.15568382 0.13342665 -0.049660414 0.19890691
0.15276043 0.08934432 0.40879908 -0.13793728 -0.21588029 0.4558823 -0.026098642 -0.25530097
-0.17176649 -0.1419233 0.26197174 -0.039038315 0.029162217 -0.4833922 -0.10292901 0.056412574
-0.27805167 -0.28340822 -0.22570825 0.19829437 0.24546131 0.4236315 -0.03001402 0.24838735
0.13951889 -0.22309986 0.5142439 -0.26531819 0.8064275 0.17651626 0.27869228 -0.053606953
0.34342375 0.32302368 -0.28683507 0.17008574 0.10727286 -0.20831722 0.6210771 -0.011257487
0.1074752 0.48926568 0.89520615 -0.2290055 0.2801325 -0.16285051 0.32901004 0.50012887
0.10395991 -0.2722362 -0.17573899 -0.28901052 0.30190316 0.22818081 -0.18449867 -0.23851788
0.17722352 0.25939912 -0.86769927 0.34539753 -0.017371353 -0.18676804 -0.20308715 0.24908365
-0.39245558 0.27755046 -0.060613833 -0.18138914 0.08693932 -0.3850167 -0.08441248 -0.16068222
0.06669754 -0.44822556 0.0211419 0.14070138 -0.19509178 -0.11006434 -0.3183134 -0.56422406
0.2452672 0.1487459 -0.25241908 0.18386689 0.18578275 0.1615792 -0.14054808 0.08066024
-0.591839 0.13833576 0.38241342 -0.4733097 -0.26584804 0.21178901 0.18088591 0.3792236
0.033730894 -0.2594169 0.09636054 0.15156236 0.3150791 0.18324588 -0.09641564 0.23153771
-0.007107263 0.3251905 -0.1470306 0.10811175 0.1547487 -0.18224007 0.15488288 -0.252327
-0.32862103 0.05952084 -0.32738113 -0.47227365 -0.3166981 -0.019327046 0.35318863 -0.7194192
-0.20353743 -0.10089214 -0.016317636 0.37243387 -0.061559122 0.14536291 0.234091 -0.2013641
0.26287606 0.20748906 -0.19020346 -0.18025212 0.19663285 -0.1323828 -0.42310995 -0.0046662525
0.23306832 -0.10951501 -0.065725185 -0.012093855 -0.0030820232 0.46668252 0.17657158 -0.22456206

lstm.bias_ih_l1 f4 [256]
00000000: 790a 3dbf 1c30 4bbf 427f fbbe 9e09 923b
00000010: d19d fdbd 5235 68bf 371f 59bf 436c 83be
00000020: e15e 27bf 4338 1ebf dbff 90bf ccab 15bf
00000030: 6fb5 0ebf c777 62bf 0f72 cfbe 9ef4 eabe
00000040: 9114 b9be 0e53 53bf 597c a4be 874b 74bf
00000050: 984c b2be 9987 1fbf 60f6 adbe e001 21bf
00000060: 0e06 dfbe 1ee1 55bf 0efe 25bf 4bc8 ddbe
00000070: 2e96 f1be 966c cdbe c7ff 28bf aab8 c3be
00000080: 377e c0bb 51d3 67bf 09df f9be fc11 34bf
00000090: 6ee4 95be 9c43 12bf 9a47 0bbf 9106 adbc
000000a0: 1bbc 73be 0479 ecbe 59ef f6be 3634 a1be
000000b0: 8070 e6be 6b9b 17bf eab0 2bbf 0e9a 07bf
000000c0: 7ed3 a5be 72f5 b33d 02bb d5be 88ce f7be
000000d0: e76f cdbe 5cd4 83be 7261 d0be 75ba 11bf
000000e0: 1bbe efbe 35c4 dbbe 9986 1cbf d5e1 b6bd
000000f0: 28d0 02be f6ba 52bf 88ee 17bf 907b 5ebf
00000100: f090 72bd df4e 56be 836e 503e 9df7 703f
00000110: bdec bbbe 6215 09bf 5fb3 25bf 829f 853d
00000120: 738c 873e 7238 40be 80da ecbe 3b3d a13e
00000130: 12e8 173e 538c 25bf 7a26 d9be 4a94 173d
00000140: 5ac5 223e 1ef8 adbe d3fe 093d c92c bebe
00000150: fd6a 9cbc d69c cd3e d112 cb3d 5d51 a63e
00000160: 221e f53e 8e75 833e a5ba d1be 6e7b 3e3e
00000170: 2fce 173f b989 6fbe ae40 06bf 6ccc 0a3f
00000180: 66d6 353f 7dc5 c5be 23fb 88be 60ab 7c3e
00000190: c5ea b53e 51cc 8bbd c8ee 2dbf 04cf 5e3f
000001a0: 68da b0be 04a0 2f3e 658b 74bd 110a d43e
000001b0: 457b 3cbe d034 9bbd 2c98 dabd 05a4 11bf
000001c0: 1c2a 39be b7c2 153f b3f9 d5be b696 5dbe
000001d0: 3ee3 41bf 6cc5 113e a590 1a3e 81a4 abbd
000001e0: dc2f f03e a797 2c3f 61ee 0a3f 51a1 15be
000001f0: b11f fc3e 7184 0fbf 4207 6abc 9a69 77bf
00000200: 6476 0c3e 7b9f 4ebe b2ce 31be 510c fabe
00000210: 9446 103e 7ca4 adbe 10b6 483e bfef aebd
00000220: d286 423e 5c93 89be ad47 313e cde2 9e3e
00000230: bd70 0dbe 234e 1fbe b72e f8bd 351c ebbc
00000240: ffeb a2be 8a86 ebbd 35ff 10be 7dae 7a3d
00000250: 618d adbb e6f8 00be a6b6 eabd c5a3 0f3e
00000260: 886b 93be 9e66 0abe 7e13 9e3e 3de3 a9bd
00000270: 8450 cbbe 0d9a 76bd 4b31 2dbe a276 f5be
00000280: 3fcf 02bf 0d18 efbe 6cac f3bd bf3a 923e
00000290: 7500 a8bb 73eb 17be 120b 603d 9839 56be
000002a0: 10e2 a6be 84f3 cdbd 1bc5 853e fcfc 373e
000002b0: 1fde e53e 0fd2 42be 8633 c5bd 3852 193e
000002c0: a267 85be efa2 92be 370d 89be 56ad 273e
000002d0: 3884 59bd b021 bd3c 846e 58be 1db9 bc3c
000002e0: 0482 1dbe 838c 203e 90df 8b3e dc16 dabd
000002f0: 7023 053f fd50 0d3e 3285 123e 140f 06be
00000300: 41d5 8cbe ef8c debe 2654 2fbe 46f8 25be
00000310: 9864 9fbe 6f2e 27bf 88a5 4bbf 33b8 36bf
00000320: 13fa c3be 2060 65bf 341b 56bf 955d 74bf
00000330: 5dd8 21bf 6c34 6bbf b1cc 71bf 9cac 16bf
00000340: 11e1 6cbf 4cfa 65bf 616c 0cbf 0ca4 44bf
00000350: 2731 28be ee6c 1cbf ccb5 01bf cb66 c6be
00000360: df85 84be 4c9f 8dbf 2844 20bf e3ff 01bf
00000370: 2179 39be 7225 9fbe 2e91 51bf 2629 d3be
00000380: d2ae b1be 291f 61bf 925b 7cbe feef 3bbf
00000390: 6e37 6abf beb6 28bf 3f97 49bf dfe8 e8bd
000003a0: c042 58be 62e7 adbe 460f d0be f3ea a8be
000003b0: da09 21bf aaa2 59bf 6bbb 03bf d97e 7ebf
000003c0: 5bad 6abf 0b88 65be fa9d 26bf 2857 bbbe
000003d0: e8a3 b5be e0c1 30bf a0c2 e1be 2299 1ebf
000003e0: 76bd 4dbf 612c cbbe 5924 0dbf 430a d6be
000003f0: 3aff 8ebe eecd 14bf 9fac e3be b467 17bf
-0.73844105 -0.79370284 -0.49120528 0.004456713 -0.12383617 -0.9070636 -0.84813255 -0.25668535
-0.6537915 -0.618046 -1.1328081 -0.58465266 -0.55745596 -0.88464016 -0.40516707 -0.45889753
-0.36148503 -0.82548606 -0.3212612 -0.95427746 -0.3482406 -0.6231628 -0.33977032 -0.62893486
-0.43559307 -0.83546627 -0.6484078 -0.43316874 -0.4718489 -0.40121907 -0.66015285 -0.38226825
-0.005874421 -0.9055682 -0.48802975 -0.7033994 -0.2927584 -0.57134414 -0.5440613 -0.021121295
-0.23802225 -0.46186078 -0.48229483 -0.31485146 -0.45007706 -0.59221524 -0.67066824 -0.52969444
-0.32387918 0.08787049 -0.41744238 -0.48399758 -0.40124437 -0.25747955 -0.40699345 -0.56925136
-0.46824726 -0.42923132 -0.6114288 -0.08929793 -0.12774718 -0.8231653 -0.59348345 -0.8690729
-0.059220254 -0.20928524 0.20354657 0.9412783 -0.36704054 -0.5354825 -0.64726824 0.06524564
0.26474342 -0.18771532 -0.46260452 0.31492028 0.14834622 -0.6466724 -0.42412168 0.037006654
0.15895596 -0.3397836 0.033690285 -0.37143543 -0.019093985 0.4015872 0.09915698 0.3248395
0.47874552 0.25675625 -0.4096271 0.18601772 0.59298986 -0.23392381 -0.52442443 0.54218173
0.7103027 -0.38627234 -0.26754102 0.2467475 0.35530677 -0.0682608 -0.67942476 0.8703463
-0.3454163 0.17150885 -0.05970325 0.4141393 -0.18406399 -0.075784326 -0.10673556 -0.568909
-0.1808247 0.58500236 -0.41792068 -0.21639523 -0.7573737 0.14235467 0.1509424 -0.08380986
0.46911514 0.67418903 0.5426999 -0.14612319 0.4924293 -0.56061465 -0.014283957 -0.9664551
0.13717037 -0.20178024 -0.17364004 -0.48837522 0.14089423 -0.33914554 0.19600701 -0.08541822
0.18996742 -0.2687024 0.17312498 0.3103241 -0.13812537 -0.1555715 -0.12118285 -0.028699974
-0.31820676 -0.11500271 -0.14159854 0.06120156 -0.0052963947 -0.12594947 -0.11460619 0.14027317
-0.28792977 -0.13515708 0.30874246 -0.082952954 -0.39709866 -0.060205508 -0.16913335 -0.47942072
-0.5109748 -0.46698037 -0.11898121 0.28560445 -0.0051270076 -0.1483591 0.054698057 -0.20920408
-0.32594347 -0.100562125 0.26126942 0.179676 0.44896027 -0.19025443 -0.09628968 0.1497277
-0.26055628 -0.28639933 -0.26767895 0.16374716 -0.05310461 0.023087353 -0.21135908 0.023037488
-0.15381628 0.15678601 0.27319002 -0.10648891 0.520072 0.13800426 0.14308622 -0.1309169
-0.2750645 -0.434669 -0.17121944 -0.1620799 -0.31131434 -0.6530523 -0.79549456 -0.71374816
-0.3827673 -0.895998 -0.8363526 -0.95455295 -0.6322077 -0.91876864 -0.9445296 -0.5885713
-0.92530924 -0.8983505 -0.54852873 -0.76812816 -0.16425 -0.61103714 -0.50668025 -0.387503
-0.25883386 -1.1064239 -0.62604 -0.5078108 -0.18112613 -0.31083256 -0.8186215 -0.4124233
-0.3470369 -0.8793817 -0.24644306 -0.73413074 -0.9149083 -0.6590384 -0.7874641 -0.11372542
-0.21119213 -0.33965594 -0.40636653 -0.32991752 -0.6290566 -0.8501383 -0.5145785 -0.99412304
-0.9167077 -0.22415178 -0.65084803 -0.36589932 -0.35476613 -0.6904583 -0.440938 -0.6195241
-0.8036722 -0.39682296 -0.5513359 -0.41804704 -0.27929097 -0.58126724 -0.44467637 -0.59142613

lstm.bias_hh_l1 f4 [256]
00000000: a0e7 2abf 0835 3bbf b5d5 95be 6052 be3d
00000010: b1d2 abbe c985 5abf bf9e 66bf d5d1 c3be
00000020: 4bd5 1fbf af27 fbbe 51d4 9ebf 25cc 02bf
00000030: 792b 40bf bb4b 58bf 8457 c1be bfcb 09bf
00000040: 10f6 f2be 48ef 42bf f061 02bf d9a4 60bf
00000050: 77a4 ccbe a21f 1bbf 119b a8be 0703 01bf
00000060: 31b7 08bf 336b 46bf aafb 33bf f5d4 06bf
00000070: f0b2 f0be 83e9 e3be 73a4 32bf 0bf0 99be
00000080: 2c24 44bd 4a4c 48bf fc1d 05bf acef 16bf
00000090: bd6b bbbe db41 00bf 98a4 29bf e90f 49bd
000000a0: 9a78 d2be b8b9 e2be 6517 14bf fd5c dbbe
000000b0: 281f f5be 5198 10bf e2d0 13bf 67c1 09bf
000000c0: 2c62 56be d87e 93bd ed36 f3be d91e edbe
000000d0: 22c3 1bbf f097 0dbe df14 0dbf f034 dbbe
000000e0: fec2 b2be 3416 a6be cb3d 16bf 9909 74be
000000f0: 3094 47be edfc 38bf 9b65 24bf fc61 43bf
00000100: 1cc4 93bd eb75 c9be 283d 823e 51d8 5a3f
00000110: c6c1 10bf 5f83 1dbf 11ad 14bf 5303 c9bd
00000120: ab52 de3d 3110 4fbe 6ac7 2abf a8e0 e53e
00000130: 6eb3 143d b752 1abf 644e d7be 7f79 d33c
00000140: 96a9 213e c202 88be 6ace d3ba beba 9dbe
00000150: 13fc 73bd 3d09 d23e bfb9 65bc 7a12 8f3e
00000160: 055b cc3e 8aa5 973e 84c3 cabe be01 713e
00000170: bb51 223f e1c1 b0be ab41 2dbf 7e14 003f
00000180: 4590 5b3f ffdb a7be 7613 9bbe c731 5a3e
00000190: be96 b73e 0798 193c 99c2 27bf b54d 623f
000001a0: 796b a8be dcc0 973e 2c5e 84bc 8753 fc3e
000001b0: d530 7ebe 1bd9 773d 3d5a babd 4a8f 27bf
000001c0: 76e4 07be 86dc 393f 045f f1be 8238 8bbe
000001d0: 2c3b 64bf 0a4d da3d 4b82 1d3e 0d52 94bc
000001e0: 057b 8d3e 5c12 2c3f 5b60 de3e 957c 48be
000001f0: 9821 033f 1c24 00bf 1a79 84bd 5eab 45bf
00000200: 0dbf 913e fdf9 3fbe 01f0 433d 3277 abbe
00000210: cb61 2f3d 3ccf b3be 4411 583e 3d39 03be
00000220: 9129 8b3e 5efa 71be 0e9a b73e a72a e43d
00000230: eb02 11be f976 5bbe c7f1 ecbd cf23 d63d
00000240: c379 9fbe 4eb5 d4bb 32c7 42be ce64 ee3d
00000250: f9ee 263e ee89 59bd 8a28 02be d40f 3c3e
00000260: 9b36 66be dc2c b0be fdf3 173e 75ac 8ebd
00000270: cc27 a0be 3e2a 56be 5c80 68be eefe b4be
00000280: 6284 05bf f13b a5be 4bf2 8cbe a0ee 513e
00000290: 89a8 81bc aa40 7cbd dd2a 673d 365c 8cbd
000002a0: d3a5 0cbf a1d3 c3bd ec13 8d3e c185 293e
000002b0: af2d 163f f2de 99be d7a1 173d 349f e73d
000002c0: 212a bfbe c91c 22be 48dc 94be 72b5 903e
000002d0: 212c 093e 7b72 513e edad adbe 4679 103d
000002e0: df0c 58be 8baf 383d faee 113e 4472 193d
000002f0: ca5c 313f 0135 843d fcb2 853e e478 37bd
00000300: a335 83be b800 0dbf d7b0 7cbe 2da0 15be
00000310: 17e2 d3be 6e6c 48bf e570 3ebf 8582 1ebf
00000320: eec5 c8be 0b15 5dbf aeb3 6bbf 2e4f 67bf
00000330: 68a4 22bf d031 7ebf 2b33 38bf 3d5c 08bf
00000340: c371 50bf deeb 36bf 88c8 07bf c67c 45bf
00000350: 9c68 50be 8288 06bf b7a9 16bf 51d1 0cbf
00000360: 52d5 ccbd 8235 6bbf 0ac3 e6be 5f81 04bf
00000370: dd36 e2bb b799 65be 176e 3cbf 5b6f d0be
00000380: b488 c7be 3ac6 39bf c5c8 bebe 7ae8 47bf
00000390: fab0 5ebf dd5a 4abf 91b2 31bf 616b 02be
000003a0: df7f a8be 1f1f 9fbe dd52 febe d0d0 d8bd
000003b0: 26ea eebe bb84 3abf 8e88 a4be fc00 7dbf
000003c0: 584c 77bf 715c 81be 5cf5 45bf 71dd d9be
000003d0: 39d6 e1be bce0 61bf 86e5 1abf a584 18bf
000003e0: c6ca 2abf 2806 03bf 289b d0be b311 91be
000003f0: ffea b8be e6f9 3ebf e62e 19bf cd94 d8be
-0.6675968 -0.73127794 -0.29264608 0.092930555 -0.33559182 -0.8536039 -0.9008598 -0.38246027
-0.62434834 -0.49053714 -1.2408544 -0.5109275 -0.75066334 -0.84490556 -0.37762082 -0.53826517
-0.47453356 -0.76146364 -0.5093069 -0.8775154 -0.39969227 -0.6059514 -0.32930806 -0.50395244
-0.5340453 -0.77507323 -0.70305884 -0.52668697 -0.47011518 -0.44514093 -0.6978218 -0.3006595
-0.04788606 -0.7824141 -0.5199888 -0.5895946 -0.36605635 -0.5010049 -0.66266775 -0.04908744
-0.41107637 -0.44282317 -0.578482 -0.42844382 -0.47875333 -0.56482416 -0.57740605 -0.53810734
-0.20935887 -0.07201928 -0.47502843 -0.46312597 -0.60844624 -0.13827491 -0.5510997 -0.42813826
-0.34914392 -0.32438815 -0.5868804 -0.23831786 -0.19490123 -0.72260934 -0.6421754 -0.7632139
-0.07215139 -0.39347777 0.25437284 0.8548632 -0.56545675 -0.6152858 -0.5807658 -0.09815087
0.108556114 -0.2022102 -0.6671053 0.44897962 0.03630393 -0.6028246 -0.42051995 0.02581477
0.15787348 -0.26564604 -0.0016159539 -0.30806535 -0.05956657 0.41022673 -0.014021336 0.27943784
0.39913192 0.29618484 -0.39602292 0.23535821 0.6340596 -0.34522918 -0.67678326 0.5003127
0.8576701 -0.3278503 -0.30288285 0.21308051 0.35857195 0.009374625 -0.6553131 0.8839982
-0.32894495 0.29639328 -0.016158186 0.49282476 -0.24823315 0.060509782 -0.09099243 -0.65453017
-0.13270745 0.7260212 -0.47142804 -0.2719155 -0.8915279 0.10659225 0.15381734 -0.018105531
0.2763292 0.67215514 0.43432888 -0.19578774 0.51223135 -0.500551 -0.06468411 -0.7721461
0.28466073 -0.18747707 0.047836307 -0.33489376 0.042817872 -0.35119045 0.21100336 -0.12814803
0.2718015 -0.23630664 0.35859722 0.11140948 -0.1416127 -0.21432103 -0.11569553 0.10456049
-0.31147584 -0.0064913398 -0.190213 0.11640321 0.16302098 -0.053110056 -0.12710777 0.18365413
-0.22481768 -0.34409225 0.14839168 -0.06966487 -0.31280363 -0.20914552 -0.22705215 -0.35350746
-0.52155125 -0.32272294 -0.27528605 0.20501184 -0.015827434 -0.061585106 0.056437362 -0.06853525
-0.5494053 -0.095618494 0.27554262 0.1655493 0.5866346 -0.30052906 0.037019577 0.113096625
-0.3733683 -0.15831293 -0.2907431 0.28263432 0.1339574 0.20453827 -0.33921757 0.035271905
-0.2109866 0.045089286 0.14251319 0.037462488 0.6928221 0.06455422 0.26113117 -0.044793025
-0.2562686 -0.5507922 -0.24676834 -0.14611883 -0.4138343 -0.7829045 -0.74391013 -0.61917907
-0.39213508 -0.86360234 -0.92071044 -0.90355194 -0.63532114 -0.9929476 -0.71953076 -0.53265744
-0.81423587 -0.71453655 -0.5304036 -0.77143514 -0.20352405 -0.52552044 -0.58852714 -0.5500689
-0.10001625 -0.9187852 -0.45070678 -0.51759905 -0.006903513 -0.22421919 -0.73605484 -0.40709957
-0.38971484 -0.72568095 -0.3726255 -0.78089106 -0.86988795 -0.79044896 -0.69413096 -0.12736274
-0.32910058 -0.3107843 -0.49672595 -0.10586703 -0.46663016 -0.7285878 -0.32135433 -0.9882963
-0.96600866 -0.2526584 -0.77327514 -0.4255176 -0.4410875 -0.8823354 -0.60506475 -0.595774
-0.6671566 -0.5118127 -0.40743375 -0.28333816 -0.36116788 -0.74600065 -0.59837186 -0.42301026
